…
hyperparameters: lr0=0.01, lrf=0.01, momentum=0.937, weight_decay=0.0005, warmup_epochs=3.0, warmup_momentum=0.8, warmup_bias_lr=0.1, box=0.05, cls=0.5, cls_pw=1.0, obj=1.0, obj_pw=1.0, iou_t=0.2, anchor_t=4.0, fl_gamma=0.0, hsv_h=0.015, hsv_s=0.7, hsv_v=0.4, degrees=0.0, translate=0.1, scale=0.5, shear=0.0, perspective=0.0, flipud=0.0, fliplr=0.5, mosaic=1.0, mixup=0.0, copy_paste=0.0
ClearML: run 'pip install clearml' to automatically track, visualize and remotely train YOLOv5  in ClearML
Comet: run 'pip install comet_ml' to automatically track and visualize YOLOv5  runs in Comet
TensorBoard: Start with 'tensorboard --logdir runs\train', view at http://localhost:6006/
Overriding model.yaml nc=80 with nc=6

                 from  n    params  module                                  arguments
  0                -1  1      8800  models.common.Conv                      [3, 80, 6, 2, 2]
  1                -1  1    115520  models.common.Conv                      [80, 160, 3, 2]
  2                -1  4    309120  models.common.C3                        [160, 160, 4]
  3                -1  1    461440  models.common.Conv                      [160, 320, 3, 2]
  4                -1  8   2259200  models.common.C3                        [320, 320, 8]
  5                -1  1   1844480  models.common.Conv                      [320, 640, 3, 2]
  6                -1 12  13125120  models.common.C3                        [640, 640, 12]                
  7                -1  1   7375360  models.common.Conv                      [640, 1280, 3, 2]             
  8                -1  4  19676160  models.common.C3                        [1280, 1280, 4]               
  9                -1  1   4099840  models.common.SPPF                      [1280, 1280, 5]               
 10                -1  1    820480  models.common.Conv                      [1280, 640, 1, 1]
 11                -1  1         0  torch.nn.modules.upsampling.Upsample    [None, 2, 'nearest']
 12           [-1, 6]  1         0  models.common.Concat                    [1]
 13                -1  4   5332480  models.common.C3                        [1280, 640, 4, False]         
 14                -1  1    205440  models.common.Conv                      [640, 320, 1, 1]
 15                -1  1         0  torch.nn.modules.upsampling.Upsample    [None, 2, 'nearest']
 16           [-1, 4]  1         0  models.common.Concat                    [1]
 17                -1  4   1335040  models.common.C3                        [640, 320, 4, False]
 18                -1  1    922240  models.common.Conv                      [320, 320, 3, 2]
 19          [-1, 14]  1         0  models.common.Concat                    [1]
 20                -1  4   4922880  models.common.C3                        [640, 640, 4, False]          
 21                -1  1   3687680  models.common.Conv                      [640, 640, 3, 2]              
 22          [-1, 10]  1         0  models.common.Concat                    [1]
 23                -1  4  19676160  models.common.C3                        [1280, 1280, 4, False]        
 24      [17, 20, 23]  1     74019  models.yolo.Detect                      [6, [[10, 13, 16, 30, 33, 23], [30, 61, 62, 45, 59, 119], [116, 90, 156, 198, 373, 326]], [320, 640, 1280]]
Model summary: 445 layers, 86251459 parameters, 86251459 gradients, 204.7 GFLOPs

Transferred 739/745 items from yolov5x.pt
AMP: checks passed 
optimizer: SGD(lr=0.01) with parameter groups 123 weight(decay=0.0), 126 weight(decay=0.0005), 126 bias
…
hyperparameters: lr0=0.01, lrf=0.01, momentum=0.937, weight_decay=0.0005, warmup_epochs=3.0, warmup_momentum=0.8, warmup_bias_lr=0.1, box=0.05, cls=0.5, cls_pw=1.0, obj=1.0, obj_pw=1.0, iou_t=0.2, anchor_t=4.0, fl_gamma=0.0, hsv_h=0.015, hsv_s=0.7, hsv_v=0.4, degrees=0.0, translate=0.1, scale=0.5, shear=0.0, perspective=0.0, flipud=0.0, fliplr=0.5, mosaic=1.0, mixup=0.0, copy_paste=0.0
ClearML: run 'pip install clearml' to automatically track, visualize and remotely train YOLOv5  in ClearML
Comet: run 'pip install comet_ml' to automatically track and visualize YOLOv5  runs in Comet
TensorBoard: Start with 'tensorboard --logdir runs\train', view at http://localhost:6006/
Overriding model.yaml nc=80 with nc=6

                 from  n    params  module                                  arguments
  0                -1  1      8800  models.common.Conv                      [3, 80, 6, 2, 2]
  1                -1  1    115520  models.common.Conv                      [80, 160, 3, 2]
  2                -1  4    309120  models.common.C3                        [160, 160, 4]
  3                -1  1    461440  models.common.Conv                      [160, 320, 3, 2]
  4                -1  8   2259200  models.common.C3                        [320, 320, 8]                 
  5                -1  1   1844480  models.common.Conv                      [320, 640, 3, 2]
  6                -1 12  13125120  models.common.C3                        [640, 640, 12]                
  7                -1  1   7375360  models.common.Conv                      [640, 1280, 3, 2]
  8                -1  4  19676160  models.common.C3                        [1280, 1280, 4]               
  9                -1  1   4099840  models.common.SPPF                      [1280, 1280, 5]
 10                -1  1    820480  models.common.Conv                      [1280, 640, 1, 1]
 11                -1  1         0  torch.nn.modules.upsampling.Upsample    [None, 2, 'nearest']
 12           [-1, 6]  1         0  models.common.Concat                    [1]
 13                -1  4   5332480  models.common.C3                        [1280, 640, 4, False]         
 14                -1  1    205440  models.common.Conv                      [640, 320, 1, 1]
 15                -1  1         0  torch.nn.modules.upsampling.Upsample    [None, 2, 'nearest']
 16           [-1, 4]  1         0  models.common.Concat                    [1]
 17                -1  4   1335040  models.common.C3                        [640, 320, 4, False]          
 18                -1  1    922240  models.common.Conv                      [320, 320, 3, 2]
 19          [-1, 14]  1         0  models.common.Concat                    [1]
 20                -1  4   4922880  models.common.C3                        [640, 640, 4, False]          
 21                -1  1   3687680  models.common.Conv                      [640, 640, 3, 2]
 22          [-1, 10]  1         0  models.common.Concat                    [1]
 23                -1  4  19676160  models.common.C3                        [1280, 1280, 4, False]        
 24      [17, 20, 23]  1     74019  models.yolo.Detect                      [6, [[10, 13, 16, 30, 33, 23], [30, 61, 62, 45, 59, 119], [116, 90, 156, 198, 373, 326]], [320, 640, 1280]]
Model summary: 445 layers, 86251459 parameters, 86251459 gradients, 204.7 GFLOPs

Transferred 739/745 items from yolov5x.pt
AMP: checks passed 
optimizer: SGD(lr=0.01) with parameter groups 123 weight(decay=0.0), 126 weight(decay=0.0005), 126 bias
…
1.24.1 oauthlib-3.2.2 opt-einsum-3.3.0 protobuf-4.22.3 pyasn1-0.5.0 pyasn1-modules-0.3.0 requests-oauthlib-1.3.1 rsa-4.9 tensorboard-2.12.2 tensorboard-data-server-0.7.0 tensorboard-plugin-wit-1.8.1 tensorflow-cpu-2.12.0 tensorflow-estimator-2.12.0 tensorflow-intel-2.12.0 tensorflow-io-gcs-filesystem-0.31.0 termcolor-2.3.0 werkzeug-2.3.2 wrapt-1.14.1

requirements: 1 package updated per ['tensorflow-cpu']
requirements:  Restart runtime or rerun command for updates to take effect


TensorFlow SavedModel: starting export with tensorflow 2.12.0...

                 from  n    params  module                                  arguments
  0                -1  1      8800  models.common.Conv                      [3, 80, 6, 2, 2]              
  1                -1  1    115520  models.common.Conv                      [80, 160, 3, 2]
  2                -1  1    309120  models.common.C3                        [160, 160, 4]                 
  3                -1  1    461440  models.common.Conv                      [160, 320, 3, 2]
  4                -1  1   2259200  models.common.C3                        [320, 320, 8]                 
  5                -1  1   1844480  models.common.Conv                      [320, 640, 3, 2]
  6                -1  1  13125120  models.common.C3                        [640, 640, 12]                
  7                -1  1   7375360  models.common.Conv                      [640, 1280, 3, 2]             
  8                -1  1  19676160  models.common.C3                        [1280, 1280, 4]               
  9                -1  1   4099840  models.common.SPPF                      [1280, 1280, 5]               
 10                -1  1    820480  models.common.Conv                      [1280, 640, 1, 1]
 11                -1  1         0  torch.nn.modules.upsampling.Upsample    [None, 2, 'nearest']
 12           [-1, 6]  1         0  models.common.Concat                    [1]
 13                -1  1   5332480  models.common.C3                        [1280, 640, 4, False]         
 14                -1  1    205440  models.common.Conv                      [640, 320, 1, 1]
 15                -1  1         0  torch.nn.modules.upsampling.Upsample    [None, 2, 'nearest']
 16           [-1, 4]  1         0  models.common.Concat                    [1]
 17                -1  1   1335040  models.common.C3                        [640, 320, 4, False]          
 18                -1  1    922240  models.common.Conv                      [320, 320, 3, 2]
 19          [-1, 14]  1         0  models.common.Concat                    [1]
 20                -1  1   4922880  models.common.C3                        [640, 640, 4, False]          
 21                -1  1   3687680  models.common.Conv                      [640, 640, 3, 2]
 22          [-1, 10]  1         0  models.common.Concat                    [1]                           
 23                -1  1  19676160  models.common.C3                        [1280, 1280, 4, False]        
 24      [17, 20, 23]  1     74019  models.yolo.Detect                      [6, [[10, 13, 16, 30, 33, 23], [30, 61, 62, 45, 59, 119], [116, 90, 156, 198, 373, 326]], [320, 640, 1280], [640, 640]]
Model: "model"
__________________________________________________________________________________________________
 Layer (type)                   Output Shape         Param #     Connected to
…
hyperparameters: lr0=0.01, lrf=0.01, momentum=0.937, weight_decay=0.0005, warmup_epochs=3.0, warmup_momentum=0.8, warmup_bias_lr=0.1, box=0.05, cls=0.5, cls_pw=1.0, obj=1.0, obj_pw=1.0, iou_t=0.2, anchor_t=4.0, fl_gamma=0.0, hsv_h=0.015, hsv_s=0.7, hsv_v=0.4, degrees=0.0, translate=0.1, scale=0.5, shear=0.0, perspective=0.0, flipud=0.0, fliplr=0.5, mosaic=1.0, mixup=0.0, copy_paste=0.0
ClearML: run 'pip install clearml' to automatically track, visualize and remotely train YOLOv5  in ClearML
Comet: run 'pip install comet_ml' to automatically track and visualize YOLOv5  runs in Comet
TensorBoard: Start with 'tensorboard --logdir runs\train', view at http://localhost:6006/
Overriding model.yaml nc=80 with nc=6

                 from  n    params  module                                  arguments
  0                -1  1      8800  models.common.Conv                      [3, 80, 6, 2, 2]
  1                -1  1    115520  models.common.Conv                      [80, 160, 3, 2]
  2                -1  4    309120  models.common.C3                        [160, 160, 4]
  3                -1  1    461440  models.common.Conv                      [160, 320, 3, 2]
  4                -1  8   2259200  models.common.C3                        [320, 320, 8]                 
  5                -1  1   1844480  models.common.Conv                      [320, 640, 3, 2]
  6                -1 12  13125120  models.common.C3                        [640, 640, 12]                
  7                -1  1   7375360  models.common.Conv                      [640, 1280, 3, 2]
  8                -1  4  19676160  models.common.C3                        [1280, 1280, 4]               
  9                -1  1   4099840  models.common.SPPF                      [1280, 1280, 5]
 10                -1  1    820480  models.common.Conv                      [1280, 640, 1, 1]
 11                -1  1         0  torch.nn.modules.upsampling.Upsample    [None, 2, 'nearest']
 12           [-1, 6]  1         0  models.common.Concat                    [1]
 13                -1  4   5332480  models.common.C3                        [1280, 640, 4, False]         
 14                -1  1    205440  models.common.Conv                      [640, 320, 1, 1]              
 15                -1  1         0  torch.nn.modules.upsampling.Upsample    [None, 2, 'nearest']
 16           [-1, 4]  1         0  models.common.Concat                    [1]
 17                -1  4   1335040  models.common.C3                        [640, 320, 4, False]
 18                -1  1    922240  models.common.Conv                      [320, 320, 3, 2]
 19          [-1, 14]  1         0  models.common.Concat                    [1]
 20                -1  4   4922880  models.common.C3                        [640, 640, 4, False]          
 21                -1  1   3687680  models.common.Conv                      [640, 640, 3, 2]              
 22          [-1, 10]  1         0  models.common.Concat                    [1]
 23                -1  4  19676160  models.common.C3                        [1280, 1280, 4, False]        
 24      [17, 20, 23]  1     74019  models.yolo.Detect                      [6, [[10, 13, 16, 30, 33, 23], [30, 61, 62, 45, 59, 119], [116, 90, 156, 198, 373, 326]], [320, 640, 1280]]
Model summary: 445 layers, 86251459 parameters, 86251459 gradients, 204.7 GFLOPs

Transferred 739/745 items from yolov5x.pt
AMP: checks passed 
optimizer: SGD(lr=0.01) with parameter groups 123 weight(decay=0.0), 126 weight(decay=0.0005), 126 bias
…
export: data=L:\Programming\YOLOv5-Training\yolov5\data\coco128.yaml, weights=['runs/train/exp7/weights/best.pt'], imgsz=[640], batch_size=1, device=cpu, half=False, inplace=False, keras=False, optimize=False, int8=False, dynamic=False, simplify=False, opset=17, verbose=False, workspace=4, nms=False, agnostic_nms=False, topk_per_class=100, topk_all=100, iou_thres=0.45, conf_thres=0.25, include=['tflite']
YOLOv5  v7.0-158-g8211a03 Python-3.10.11 torch-2.0.0 CPU

Fusing layers... 
Model summary: 322 layers, 86207059 parameters, 0 gradients, 203.9 GFLOPs

PyTorch: starting from runs\train\exp7\weights\best.pt with output shape (1, 25200, 11) (165.0 MB)

TensorFlow SavedModel: starting export with tensorflow 2.12.0...

                 from  n    params  module                                  arguments
  0                -1  1      8800  models.common.Conv                      [3, 80, 6, 2, 2]              
  1                -1  1    115520  models.common.Conv                      [80, 160, 3, 2]
  2                -1  1    309120  models.common.C3                        [160, 160, 4]
  3                -1  1    461440  models.common.Conv                      [160, 320, 3, 2]              
  4                -1  1   2259200  models.common.C3                        [320, 320, 8]                 
  5                -1  1   1844480  models.common.Conv                      [320, 640, 3, 2]              
  6                -1  1  13125120  models.common.C3                        [640, 640, 12]                
  7                -1  1   7375360  models.common.Conv                      [640, 1280, 3, 2]             
  8                -1  1  19676160  models.common.C3                        [1280, 1280, 4]               
  9                -1  1   4099840  models.common.SPPF                      [1280, 1280, 5]
 10                -1  1    820480  models.common.Conv                      [1280, 640, 1, 1]             
 11                -1  1         0  torch.nn.modules.upsampling.Upsample    [None, 2, 'nearest']
 12           [-1, 6]  1         0  models.common.Concat                    [1]
 13                -1  1   5332480  models.common.C3                        [1280, 640, 4, False]         
 14                -1  1    205440  models.common.Conv                      [640, 320, 1, 1]
 15                -1  1         0  torch.nn.modules.upsampling.Upsample    [None, 2, 'nearest']
 16           [-1, 4]  1         0  models.common.Concat                    [1]
 17                -1  1   1335040  models.common.C3                        [640, 320, 4, False]          
 18                -1  1    922240  models.common.Conv                      [320, 320, 3, 2]              
 19          [-1, 14]  1         0  models.common.Concat                    [1]
 20                -1  1   4922880  models.common.C3                        [640, 640, 4, False]          
 21                -1  1   3687680  models.common.Conv                      [640, 640, 3, 2]              
 22          [-1, 10]  1         0  models.common.Concat                    [1]
 23                -1  1  19676160  models.common.C3                        [1280, 1280, 4, False]        
 24      [17, 20, 23]  1     74019  models.yolo.Detect                      [6, [[10, 13, 16, 30, 33, 23], [30, 61, 62, 45, 59, 119], [116, 90, 156, 198, 373, 326]], [320, 640, 1280], [640, 640]]
Model: "model"
__________________________________________________________________________________________________
 Layer (type)                   Output Shape         Param #     Connected to
…
pk_per_class=100, topk_all=100, iou_thres=0.45, conf_thres=0.25, include=['tflite']
YOLOv5  v7.0-158-g8211a03 Python-3.10.11 torch-2.0.0 CUDA:0 (NVIDIA GeForce RTX 4090, 24564MiB)

Fusing layers... 
Model summary: 322 layers, 86207059 parameters, 0 gradients, 203.9 GFLOPs

PyTorch: starting from L:\Programming\YOLOv5-Training\yolov5\runs\train\exp7\weights\best.pt with output shape (1, 25200, 11) (165.0 MB)

TensorFlow SavedModel: starting export with tensorflow 2.12.0...

                 from  n    params  module                                  arguments
  0                -1  1      8800  models.common.Conv                      [3, 80, 6, 2, 2]              
  1                -1  1    115520  models.common.Conv                      [80, 160, 3, 2]
  2                -1  1    309120  models.common.C3                        [160, 160, 4]                 
  3                -1  1    461440  models.common.Conv                      [160, 320, 3, 2]
  4                -1  1   2259200  models.common.C3                        [320, 320, 8]                 
  5                -1  1   1844480  models.common.Conv                      [320, 640, 3, 2]
  6                -1  1  13125120  models.common.C3                        [640, 640, 12]                
  7                -1  1   7375360  models.common.Conv                      [640, 1280, 3, 2]             
  8                -1  1  19676160  models.common.C3                        [1280, 1280, 4]               
  9                -1  1   4099840  models.common.SPPF                      [1280, 1280, 5]               
 10                -1  1    820480  models.common.Conv                      [1280, 640, 1, 1]
 11                -1  1         0  torch.nn.modules.upsampling.Upsample    [None, 2, 'nearest']
 12           [-1, 6]  1         0  models.common.Concat                    [1]
 13                -1  1   5332480  models.common.C3                        [1280, 640, 4, False]         
 14                -1  1    205440  models.common.Conv                      [640, 320, 1, 1]              
 15                -1  1         0  torch.nn.modules.upsampling.Upsample    [None, 2, 'nearest']
 16           [-1, 4]  1         0  models.common.Concat                    [1]
 17                -1  1   1335040  models.common.C3                        [640, 320, 4, False]
 18                -1  1    922240  models.common.Conv                      [320, 320, 3, 2]              
 19          [-1, 14]  1         0  models.common.Concat                    [1]
 20                -1  1   4922880  models.common.C3                        [640, 640, 4, False]          
 21                -1  1   3687680  models.common.Conv                      [640, 640, 3, 2]              
 22          [-1, 10]  1         0  models.common.Concat                    [1]
 23                -1  1  19676160  models.common.C3                        [1280, 1280, 4, False]        
 24      [17, 20, 23]  1     74019  models.yolo.Detect                      [6, [[10, 13, 16, 30, 33, 23], [30, 61, 62, 45, 59, 119], [116, 90, 156, 198, 373, 326]], [320, 640, 1280], [640, 640]]
Model: "model"
__________________________________________________________________________________________________
 Layer (type)                   Output Shape         Param #     Connected to
…
